cassie/trajectory/ikNet_state_dict.pt (torch_old, 4876 bytes, 6 tensors)

layers.0.weight f4 [15, 9]
00000000: 43a9 013f 8f97 0c3e 95f2 90be 0b6b bdbe
00000010: dfac 19bd e53b cbbf e16c 07bd 3ee2 06c0
00000020: 5974 3abe 4ef8 9f3e 6851 e13e f995 1340
00000030: ec9c 5a3f 554d b8be faab 14bc 2988 9dbf
00000040: e08e 4540 68fe c3be 1f06 003f b4ac 90bd
00000050: b53c e73e a954 163f d3ae 5abe d95c 913f
00000060: 9731 61bf 02e2 16c0 9849 2abe 60dd f03d
00000070: 880a 00bd 9654 c4bd 5908 853e f065 6cbe
00000080: 784a 00be faf5 8cbe 68a5 073e 6051 ecbd
00000090: 4e8c 6abe 531c a13e 5d5a a83e 960b c8bd
000000a0: 5343 a73e ca64 1f3e 00db ffbb 5e6d 9ebe
000000b0: 806b a43d bb4e 6fbe 9ed6 5b3f 6b0a 5bbf
000000c0: 1064 a5bd 550e ebbe 4d04 83bf e313 e1bc
000000d0: f78a 3e3d f8e2 0cbf 94b5 533f 079b 30be
000000e0: 3da7 46bf fa64 6ebe e292 203f ac52 82be
000000f0: fdf1 adbd 7669 0ec0 6eaf 083f b14e 413d
00000100: 120f 5ebe a445 5dbe dabe 42be dfc1 113e
00000110: 7a5c 78be 2330 8f3d b85a e1bd 8a37 973d
00000120: 8c08 d9be 7b92 29be 01fd 53bb 9260 f73c
00000130: 2c94 d6be 1342 abbe 2a69 583f b0f1 a63f
00000140: 25f9 d83d 341f 163e 5496 8bbd 5750 e0bf
00000150: 0363 e13e 4ddb 913d 074b 2cbd 7e3d 2ebf
00000160: 0386 3c41 7400 363e ffd2 263e e51f 2c3f
00000170: d6a6 243f 4ace a8be 1c60 a5be 8211 a03f
00000180: 2e9d 913e 4c35 4440 8e96 76bf 0628 cfbd
00000190: bc6f 7c3f 530b 533f 412a 503e cb81 2ebf
000001a0: 3b14 343f 13be 36be e1c2 c2c0 e354 86bf
000001b0: dc2d ce3d b523 a83e 30cf be3c e26f 1b3e
000001c0: 7e68 6fbe fe7a 6f3e ebf0 13be 43fa 73be
000001d0: 80f8 ffbc 5440 dfbd e0cb c8be d063 95be
000001e0: 6d02 cfbe b389 c1bd 3a4e 7fbd 6bee aabe
000001f0: 3b79 8c3d 05e8 1c3e b0a6 e03c 8652 e9bd
00000200: e464 933d 9a42 6b3e 8b17 33be 40c2 423d
00000210: 8e35 a6be 5dc1 853e dcb7 84bd
0.506489 0.1372969 -0.28310075 -0.3699573 -0.03751838 -1.5877653 -0.03306282 -2.1075587
-0.18208446 0.3124413 0.4400742 2.3060286 0.85395694 -0.359965 -0.0090742055 -1.2307178
3.0868454 -0.38280034 0.5000934 -0.070641905 0.45163503 0.5872293 -0.21355753 1.135646
-0.87966293 -2.3575444 -0.16629636 0.11760974 -0.031260043 -0.09586446 0.2598293 -0.23085761
-0.12528408 -0.27531415 0.13246691 -0.115389585 -0.22905084 0.31466922 0.32881442 -0.09767835
0.32668552 0.15565792 -0.0078080893 -0.30942816 0.080283165 -0.23369877 0.85874355 -0.8556277
-0.08075726 -0.45909372 -1.0235687 -0.027475303 0.046519246 -0.55033827 0.8269894 -0.17246638
-0.77598935 -0.23280707 0.62724125 -0.254537 -0.08493421 -2.2251868 0.53392684 0.047194187
-0.21685436 -0.21608597 -0.19018117 0.14234112 -0.24254027 0.06991603 -0.11003631 0.0738364
-0.42389333 -0.16559784 -0.0032346847 0.030197416 -0.4190992 -0.33448848 0.8453547 1.3042507
0.105943955 0.1466034 -0.06815782 -1.7524518 0.44020852 0.071219064 -0.04206374 -0.6806258
11.782718 0.1777361 0.16291426 0.6723617 0.6431707 -0.32969886 -0.32299888 1.2505343
0.2844023 3.065753 -0.9632348 -0.10115056 0.98607993 0.82439154 0.20328619 -0.681668
0.7034337 -0.17845945 -6.086289 -1.0494655 0.10067341 0.32839742 0.023292154 0.15179399
-0.23379704 0.23386762 -0.14447372 -0.23825936 -0.031246424 -0.109009415 -0.39218044 -0.29177713
-0.40431538 -0.09450092 -0.062330462 -0.33385023 0.068590604 0.15322883 0.027423233 -0.11392693
0.07196978 0.22974625 -0.1748945 0.047548532 -0.32462734 0.26124087 -0.06480381

layers.0.bias f4 [15]
00000000: d39a f33e bcc9 6c3e 8737 2b3e 10c2 50be
00000010: 6b59 3abe b467 1e3f cb3f e4be 3119 2cbe
00000020: e681 afbd 216a 70bd a7e0 583f 7d20 7a3f
00000030: 9a86 95be 8cbc 8abe 7892 a6be
0.4757906 0.2312383 0.16720401 -0.20386529 -0.18198173 0.6187699 -0.4457992 -0.16806485
-0.08569698 -0.058694962 0.8471779 0.97705823 -0.29204255 -0.27096975 -0.32533622

layers.1.weight f4 [15, 15]
00000000: d70a dcbe 1e8a a9bf 39df 153c 5448 02bd
00000010: 2874 793d c902 d83d ece7 813e cdc8 1f3e
00000020: 5b3c 80be 1bee 453f 348f a23e e707 d53f
00000030: d16a 71be be25 213e 3e4d a8bd 80a5 783d
00000040: 5140 aa3e 547d d13e e4c9 20be 5849 533e
00000050: 5318 623d 93e1 82be 28e6 173d 2e54 14bf
00000060: 454d 58bd 508a 63bd 41b9 c1be d6ce f7bd
00000070: 9a57 cb3d f0bc 3fbd a3e4 b93e 353a be3e
00000080: e264 e13d e0a0 3b3d cc29 21bd dea3 323d
00000090: 1756 e7be a82f 2d3e 2f42 9c3e 2d96 ecbd
000000a0: a6ae 983f 60be 1ebe 5028 913d bc0b 45bd
000000b0: 2e5c 37be f58a b43e 20f9 b23f f536 023e
000000c0: 182b ee3d e09c 663e 80d6 023f a46f d13e
000000d0: 8a2f cdbd 708f 303f 4412 9dbd 83fa 743c
000000e0: edd0 d1bf 3015 dd3c 79af 0dbe 2c21 37bd
000000f0: 3d6b 57be 052a 163f 8f06 45bf f883 933d
00000100: 717e 79be c50f c7bd 0965 acbc fa63 5cbe
00000110: 1f7b b03d 7383 28be 350b c7be 3499 4fbe
00000120: 8295 433e 61a5 b1bd 2081 8ebc 0cc1 12be
00000130: e433 1fbf bedb 0f3f f43a 683e 4a80 82bd
00000140: d2d6 71bc b8b0 af3e acd9 ee3d 2c5c 953e
00000150: e82e 4a3e 667c 32bf 4128 5a3e aaf6 febd
00000160: 312e 3bbe 58e6 60be 6577 0bbf 3708 eebe
00000170: 2651 2cbe 56e2 073e e875 77bd 492d 5bbe
00000180: c878 21be 9cec 98bd 4d27 53be 4592 49be
00000190: f5c9 0ebf 1bd2 c9be e010 443d 667a 123d
000001a0: 0e88 52be e843 a7be f9fc 9abe a582 7b3d
000001b0: dead 413e 3896 fd3d d390 85be 5702 af3d
000001c0: 97b5 14be 151a a3bd e03a 15be 0115 b4be
000001d0: 0dcb a3be 4030 bd3b b030 ddbd ace4 60be
000001e0: 323e 823e 8338 673e fd33 c7be b8e8 3a3e
000001f0: 0084 b53c d48d edbb 4388 393b c7d2 1e3e
00000200: de14 b3be 976e e8be a656 023f 6d8f 13bf
00000210: 5859 fb3d 9375 8cbe 680d 3b3e 90d1 63be
00000220: b20f 29be 6eff fcbd 30d2 febd d410 b7bd
00000230: b0da 023d 3a4c 0f3e 336e 5cbe ca8d 3c3e
00000240: f141 75be b436 7dbe 1a8b 453e 009e dc3b
00000250: 9a12 c0bd 32e7 383e ec4b 69be 7c82 17be
00000260: 5c4a e73d 50af 8b3c fec9 443e 185e 113d
00000270: 604c cebd 088c 153e 0c7b 1abe f6e5 16be
00000280: b0b3 153e 9c49 27bd 3c6d 59be 7e32 c0bd
00000290: 7caf 0cbd 2e6a 4c3f bfab 39bc 191a a5bd
000002a0: ecdc 19bd 9a32 273e b2cf 4dbf e66c b23d
000002b0: 07cd 333e 5a18 07bf 700c c13e cfc8 4c3c
000002c0: db1a 34bf 702e dabc a110 5bbe 8686 553e
000002d0: 975e 44bf bd82 433e adc6 3dbe 7c99 8b3d
000002e0: a4ce 3bbd 59a4 c6bc 1ea0 55be b44b dbbd
000002f0: 4cfb 00be 1304 55bf 411b 413e 1fa4 81bf
00000300: a04a 823d 02d7 dabd 3e3b c0bd 3fbe 3d3e
00000310: ca0a af3d a66d 113d 3487 75be cae5 453e
00000320: 3101 d03d 73cf 393e c008 f0bd 5423 93be
00000330: 90dd b0bd d7a6 55be 366b 303d 9429 8dbd
00000340: 66b0 0abe d06c b73d f78c a43c 237a acbd
00000350: bf20 1bbd 4e2e 063e d436 ff3d ac8b 25bd
00000360: e0cd 83bc a7f6 913d 44c7 90be 2cd9 7abe
00000370: 6042 1f3c 4871 82be 9e1b afbd e283 e0bd
00000380: 682f dabc
-0.4297702 -1.3245275 0.009147459 -0.03180726 0.06090179 0.10547406 0.25372255 0.15603943
-0.25046048 0.77316445 0.3174988 1.6643037 -0.23575903 0.15737054 -0.08217858 0.060704708
0.33252195 0.4091593 -0.15702015 0.20633447 0.05519898 -0.25562724 0.03708473 -0.5794095
-0.052808065 -0.055551827 -0.3783665 -0.12099998 0.09928818 -0.046811044 0.36307248 0.37153783
0.1100557 0.04580772 -0.0393465 0.043613307 -0.4518287 0.1691271 0.30519244 -0.11552081
1.1928298 -0.1550231 0.07087767 -0.048106894 -0.17906258 0.35262266 1.3982277 0.12716277
0.11629313 0.2252078 0.5110855 0.40905488 -0.10018833 0.6896887 -0.076694995 0.014952305
-1.6391884 0.026987642 -0.13836469 -0.04470937 -0.21037002 0.58657867 -0.7696313 0.072029054
-0.2436464 -0.09719805 -0.021044271 -0.21522513 0.086172335 -0.16456394 -0.38875738 -0.20273286
0.19100001 -0.08674122 -0.017395556 -0.14331454 -0.62188554 0.56194675 0.22678739 -0.063721254
-0.01476069 0.34314513 0.11662611 0.29171884 0.19744456 -0.69721067 0.21304418 -0.12449391
-0.1827934 -0.21962869 -0.54479057 -0.46490642 -0.1682783 0.13269934 -0.06041518 -0.21403994
-0.1576873 -0.07467005 -0.20620461 -0.19684704 -0.5577691 -0.3941811 0.047867656 0.03576126
-0.20559713 -0.32668996 -0.30271128 0.06140389 0.18913981 0.123821676 -0.26087055 0.08545368
-0.14522396 -0.07963959 -0.1457324 -0.35172275 -0.31990853 0.005773574 -0.10800302 -0.21962231
0.25438076 0.22580151 -0.3890685 0.18252838 0.022157669 -0.0072495732 0.0028309978 0.15510093
-0.34976858 -0.45396873 0.50913465 -0.57640725 0.122729 -0.27433452 0.18266833 -0.2224791
-0.16509894 -0.12353407 -0.12442434 -0.089387566 0.031946838 0.13993922 -0.21526413 0.18413463
-0.23950936 -0.24727899 0.19291344 0.0067327023 -0.09378548 0.18056944 -0.22782868 -0.1479587
0.1129348 0.017051369 0.19217679 0.035490125 -0.10073161 0.14604199 -0.15086001 -0.1473616
0.14619327 -0.040841684 -0.21233076 -0.093846306 -0.034347042 0.7984952 -0.011332451 -0.08061618
-0.037564203 0.16327897 -0.8039504 0.08712177 0.1755868 -0.5277153 0.37704802 0.012499048
-0.7035348 -0.026633471 -0.21393062 0.20852098 -0.7670683 0.19092841 -0.1853282 0.06816384
-0.045851365 -0.024248289 -0.20861861 -0.107077986 -0.12595862 -0.8320934 0.18858053 -1.0128211
0.0636189 -0.10685541 -0.093862996 0.18529604 0.0854698 0.03550496 -0.23977357 0.19325939
0.10156477 0.18145542 -0.11720419 -0.2873789 -0.0863601 -0.20864426 0.043070994 -0.06892696
-0.13543853 0.08956301 0.020086749 -0.08421733 -0.037873026 0.13103601 0.124616295 -0.040416405
-0.01608938 0.07127123 -0.28277028 -0.24496907 0.009720415 -0.25477052 -0.085501894 -0.10962655
-0.026633933

layers.1.bias f4 [15]
00000000: 5439 693d 60f6 123f 57d7 e33e 112f 9dbe
00000010: 44eb 133f e0f3 823e fe4e e2be 6795 01bd
00000020: 045e f03e 71d9 6ebe 7aa5 45be 0528 8e3e
00000030: 1201 2b3f ad9c 6bbe 270e d7bc
0.056939438 0.5740719 0.4450023 -0.3069997 0.5778086 0.25576687 -0.4420089 -0.03163662
0.46946728 -0.23325135 -0.19301406 0.27764907 0.6679851 -0.23008986 -0.026251866

out.weight f4 [35, 15]
00000000: 9ef9 2fbf a346 92bf df39 873f a681 a03c
00000010: f4ea 0abf 1a6a 813f d6fd ec3d 4944 a23e
00000020: 3a1c aabe d0d7 34be b025 49be 132a 76bd
00000030: 1fdd aa3c 473a 46be 3fb9 e2ba c8e3 6f3d
00000040: 3eb9 5b3c 34ee 903d 105b a13c 1127 593d
00000050: 0f24 ff3b 1521 09bf 9989 9cbe e7d0 36bd
00000060: 5091 d23c 4674 473e f2ef 383d d3f0 c1bb
00000070: ad88 59bd e4ab 563d b303 34bd f1bc a33e
00000080: 711c dd3d 38aa fbbc a838 b23d c1de 713e
00000090: 6a51 db3e 0820 2b3d 147f 813d ee66 363e
000000a0: d8ff 993d aa28 aabb a464 d13e 8891 49bd
000000b0: 1ac5 c0bc 3167 773d 2665 e83d 11ce fc3d
000000c0: 8063 9dbb 905a 393e 37f5 5d3e b125 ca3b
000000d0: ff20 133e 7e92 eb3d 90d2 d53d c813 11be
000000e0: aa4f 3f3b ac66 78bc efa7 cebc a4ba 0abe
000000f0: 6f8f 63bc 2709 e7bc 50d9 f2bc 3200 1fba
00000100: 3bf0 33bd 757c 5ebd 7f99 133e 1b0f ef3c
00000110: b996 e4bc 7a8f 783e 346a 9f3d f43c 5ab9
00000120: 00dd 5cba 6da4 423e d2c0 4dbe 3860 1e3c
00000130: d98e 9e3c 95fb a83c 660b 6b3b b6f5 fb3c
00000140: 9b5e 173d 023c a5bc 4a10 683e 04ea a33c
00000150: 1ce9 47be cedc 1b3e 2da2 663a c6b3 0039
00000160: a31b 77bd a5f0 433d c7f0 183c cdd9 933c
00000170: 1b6b a03c 58e7 8f3b 6c33 ef3c f469 0d3d
00000180: dde7 01be 47bb d5bb 6a8a 9a3c f6dd 35be
00000190: 30b9 e83c aefd 943a dbe4 02ba 7f3e e73d
000001a0: d135 35bc 8946 05bc 1c5e 65bc 0b8b 82bc
000001b0: 04fb 90bb 0a6a c3bc a28a dabc 03cb 4f3d
000001c0: 0044 c03d 2dc4 7bbc 42a3 7e3e 0c94 45be
000001d0: 61ff cdba d63a a83a 13d7 1d3d e14b 70be
000001e0: 6e5a 153c 21ac 8d3c f8c1 9a3c f3b9 963b
000001f0: 8dd6 e63c 08cf 073d b411 643e 28f3 1dbe
00000200: 1b68 943c ac9b b83d 622d 7bbe c609 a43a
00000210: 2083 22ba 0801 023e 07b5 4d3d 377b c2be
00000220: f6d8 8c3f 52f7 913e 44b9 37bd f1f2 66bf
00000230: 7e11 c2bd ee51 6d3e 539d b03d eec2 643f
00000240: a0c0 9ebc 46a9 0cbe 0ab3 b2be a6e2 41bf
00000250: 475d 4e3d 07e1 143e 8c92 123e db87 193e
00000260: 869b a23d c7b1 323c 054a 6d3e 65db f63e
00000270: e701 71be c9a9 233e e953 113e 7026 e03d
00000280: 58be d13d 2c4c 383e a797 093e 5394 993e
00000290: f277 80bd dc55 223b 3ed2 4a3c 74a4 853c
000002a0: 94aa 8c3b 96aa 9c3c 6b7e 533c a3cc 11be
000002b0: 0f6d 453e 8a73 573c b3fa 823e f0f9 9b3d
000002c0: 947b dfbb e8f6 b3bb d904 12be 2cd2 643e
000002d0: e1c3 a6bc e3e2 20bc 8fd8 8b3c 3618 48bb
000002e0: 9ae8 09bc 2146 96bd d886 003e dd52 89bd
000002f0: eb57 33bb 50de 3cbc 4051 ad3d 3608 66bd
00000300: 8b71 45bd 9b95 45be 935f 92ba 8cde 413d
00000310: 35e7 a3bd 4ba8 9ebe ca14 693c 4aea 4dbe
00000320: 1068 643e 8d9a 993d eb86 8abe a644 2fbe
00000330: 9436 b03d 24a4 b7bd e907 de3e 30cb d63e
00000340: 1c5b f93c c6be 1ebe 38fa 433d afd3 a2be
00000350: 0891 55bf 4be6 413d 7c61 28bf c80a 7b3e
00000360: 0100 ef3d 305b 04bd 5e50 00bf 4070 12be
00000370: 2e8c 723e 4e2d 733f e4ac 6e3f 3616 abbc
00000380: 88ce 8bbe 71f0 053c bd46 673c 4945 833c
00000390: 36f3 923b 0a7d c43c d06d dc3c 5ee2 f83d
000003a0: beaf 833d d709 7d3c 1a2f f9bd e4ca 13bd
000003b0: 4427 d13a fc25 9cba 5c0c 893e de8d a7bd
000003c0: 848a 093c 16e2 d73e a356 713f 1500 4cbd
000003d0: 5a93 523f aaee 1ebd c409 ffbd c964 b3bc
000003e0: c604 1b3f aa3c 45be d67a 2dbe 81e2 70bf
000003f0: 030d 70bf 92e3 883e be0d 5f3c fd97 993a
-0.6874026 -1.1427807 1.0564536 0.019593071 -0.5426476 1.0110505 0.11571853 0.31692722
-0.3322466 -0.17660451 -0.19643283 -0.06009872 0.020857392 -0.19358169 -0.0017297639 0.05856684
0.013410864 0.07076684 0.019696742 0.053015772 0.007786281 -0.53566104 -0.3057373 -0.04463282
0.025704056 0.19477949 0.045150705 -0.005918601 -0.05310886 0.05241002 -0.04394884 0.31980088
0.107964404 -0.030720815 0.087022126 0.2362013 0.42835552 0.041778594 0.06323066 0.17812702
0.075195014 -0.005192836 0.40897095 -0.049211055 -0.023531485 0.060401145 0.113474175 0.123439915
-0.004803121 0.18100953 0.21675573 0.006169044 0.14368056 0.115025505 0.10440552 -0.14167702
0.002919177 -0.015161198 -0.025226561 -0.1354776 -0.013889178 -0.028202606 -0.029644638 -0.0006065398
-0.043930274 -0.05431791 0.14414023 0.029182008 -0.027903901 0.24273482 0.077839285 -0.00020812807
-0.00084252656 0.19008036 -0.20093086 0.009666495 0.019355224 0.020627776 0.0035864948 0.030756813
0.036955457 -0.020170216 0.22662464 0.020009048 -0.19522518 0.15220949 0.000879797 0.00012274002
-0.06032909 0.04783692 0.00933475 0.018048191 0.019582322 0.004391592 0.029199325 0.034524873
-0.12686105 -0.0065225693 0.01886483 -0.17760453 0.028408617 0.0011367106 -0.00049932086 0.11291217
-0.011060194 -0.008134493 -0.013999488 -0.015935441 -0.0044244546 -0.023854274 -0.026677433 0.050730716
0.0938797 -0.015366596 0.24866965 -0.19294757 -0.0015716368 0.0012834917 0.03853519 -0.23466446
0.009115798 0.017293992 0.01889132 0.0045998036 0.028178478 0.033156425 0.22272378 -0.15424788
0.018116048 0.09014067 -0.24529031 0.001251512 -0.0006199349 0.12695706 0.05022147 -0.3798463
1.1003711 0.28509003 -0.044854417 -0.9021445 -0.094759926 0.23175785 0.08623757 0.8935994
-0.01937896 -0.13736448 -0.3490222 -0.75736463 0.050381925 0.14538966 0.14313716 0.14993231
0.0793982 0.010906643 0.23172767 0.4821426 -0.23535882 0.15982737 0.14192165 0.10944831
0.10241383 0.17997807 0.13436757 0.29995975 -0.06272878 0.0024770414 0.012379227 0.016313769
0.0042927954 0.01912431 0.012908558 -0.14238219 0.19279884 0.013150105 0.25581893 0.07616031
-0.0068201516 -0.00549208 -0.14259662 0.22345799 -0.020357074 -0.009819719 0.017071037 -0.003053201
-0.008417273 -0.07337595 0.12551439 -0.06705258 -0.0027365636 -0.011527613 0.08462763 -0.056160174
-0.048203986 -0.19295351 -0.0011167399 0.047331378 -0.080030836 -0.30987772 0.014226148 -0.20108905
0.22305322 0.07500181 -0.2705606 -0.17116031 0.0860416 -0.08966854 0.4336541 0.41951895
0.030438952 -0.15502462 0.04784605 -0.31802127 -0.83424425 0.047338765 -0.6577375 0.24515831
0.116699226 -0.032313526 -0.5012263 -0.14300632 0.23686287 0.94991004 0.9323256 -0.020884614
-0.27306008 0.0081750015 0.014115986 0.016024249 0.0044845594 0.023985405 0.026907831 0.12152551
0.064300045 0.0154442405 -0.12167187 -0.036082163 0.0015957137 -0.0011913176 0.26767242 -0.08181356
0.008394841 0.42164677 0.9427282 -0.049804766 0.8225609 -0.038801827 -0.124530345 -0.021898644
0.6055416 -0.19261423 -0.1694139 -0.9409562 -0.93769854 0.26736122 0.013614116 0.001171827

out.bias f4 [35]
00000000: 304a 893e 06bc b0bd 70b8 033f 434e 2d3f
00000010: 451d a13d aa81 55bd dd2f 46bd 96ac 2e3d
00000020: 3ee9 3dbd c93f 743e 27fb e23e be5d 26bd
00000030: 6c4e 963d beb4 37be ab7a 40bf 6f3a 1dbd
00000040: 59bf 2c3f 8b5d b9bb c87f 85bf c028 823f
00000050: 57f5 64bf 22ae 9ebd f7f7 643b 2774 003f
00000060: 25de 163f 7741 a1bd 6a97 87bd c93a 2fbe
00000070: 56b5 2abf e1b0 a0bd 1418 073f 9c70 923d
00000080: da96 5fbf 9995 883f 24f4 64bf
0.26814413 -0.086296126 0.51453304 0.6769754 0.07866911 -0.05212561 -0.04838549 0.04264506
-0.046365015 0.23852457 0.4433224 -0.040616743 0.073391765 -0.17940041 -0.75187176 -0.038385805
0.67479473 -0.005656903 -1.0429621 1.0168686 -0.8943686 -0.07748057 0.0034937838 0.50177234
0.58932716 -0.078738146 -0.06620677 -0.17112269 -0.66682947 -0.07846237 0.52771115 0.07150385
-0.87339556 1.0670654 -0.8943503
